…
[[36m2021-02-03 09:11:20,704[0m][[34m__main__[0m][[32mINFO[0m] - For logs, checkpoints and samples check /disk2/data/fernandol/denoiser/outputs/exp_bandmask=0.2,batch_size=12,demucs.causal=1,demucs.hidden=48,demucs.resample=4,dset=valentini,remix=1,sample_rate=48000,segment=4.5,shift=8000,shift_same=True,stft_loss=True,stride=0.5[0m
[[36m2021-02-03 09:11:23,132[0m][[34mdenoiser.solver[0m][[32mINFO[0m] - ----------------------------------------------------------------------[0m
[[36m2021-02-03 09:11:23,132[0m][[34mdenoiser.solver[0m][[32mINFO[0m] - Training...[0m
Demucs(
  (encoder): ModuleList(
    (0): Sequential(
      (0): Conv1d(1, 48, kernel_size=(8,), stride=(4,))
      (1): ReLU()
      (2): Conv1d(48, 96, kernel_size=(1,), stride=(1,))
      (3): GLU(dim=1)
    )
    (1): Sequential(
      (0): Conv1d(48, 96, kernel_size=(8,), stride=(4,))
      (1): ReLU()
      (2): Conv1d(96, 192, kernel_size=(1,), stride=(1,))
      (3): GLU(dim=1)
    )
    (2): Sequential(
      (0): Conv1d(96, 192, kernel_size=(8,), stride=(4,))
      (1): ReLU()
      (2): Conv1d(192, 384, kernel_size=(1,), stride=(1,))
      (3): GLU(dim=1)
    )
    (3): Sequential(
      (0): Conv1d(192, 384, kernel_size=(8,), stride=(4,))
      (1): ReLU()
      (2): Conv1d(384, 768, kernel_size=(1,), stride=(1,))
      (3): GLU(dim=1)
    )
    (4): Sequential(
      (0): Conv1d(384, 768, kernel_size=(8,), stride=(4,))
      (1): ReLU()
      (2): Conv1d(768, 1536, kernel_size=(1,), stride=(1,))
      (3): GLU(dim=1)
    )
  )
  (decoder): ModuleList(
    (0): Sequential(
      (0): Conv1d(768, 1536, kernel_size=(1,), stride=(1,))
      (1): GLU(dim=1)
      (2): ConvTranspose1d(768, 384, kernel_size=(8,), stride=(4,))
      (3): ReLU()
    )
    (1): Sequential(
      (0): Conv1d(384, 768, kernel_size=(1,), stride=(1,))
      (1): GLU(dim=1)
      (2): ConvTranspose1d(384, 192, kernel_size=(8,), stride=(4,))
      (3): ReLU()
    )
    (2): Sequential(
      (0): Conv1d(192, 384, kernel_size=(1,), stride=(1,))
      (1): GLU(dim=1)
      (2): ConvTranspose1d(192, 96, kernel_size=(8,), stride=(4,))
      (3): ReLU()
    )
    (3): Sequential(
      (0): Conv1d(96, 192, kernel_size=(1,), stride=(1,))
      (1): GLU(dim=1)
      (2): ConvTranspose1d(96, 48, kernel_size=(8,), stride=(4,))
      (3): ReLU()
    )
    (4): Sequential(
      (0): Conv1d(48, 96, kernel_size=(1,), stride=(1,))
      (1): GLU(dim=1)
      (2): ConvTranspose1d(48, 1, kernel_size=(8,), stride=(4,))
    )
  )
  (lstm): BLSTM(
    (lstm): LSTM(768, 768, num_layers=2)
  )
)
[[36m2021-02-03 09:16:13,007[0m][[34mdenoiser.solver[0m][[32mINFO[0m] - Train | Epoch 1 | 472/2364 | 1.6 it/sec | Loss 0.86461[0m
[[36m2021-02-03 09:21:07,225[0m][[34mdenoiser.solver[0m][[32mINFO[0m] - Train | Epoch 1 | 944/2364 | 1.6 it/sec | Loss 0.77152[0m
[[36m2021-02-03 09:26:04,742[0m][[34mdenoiser.solver[0m][[32mINFO[0m] - Train | Epoch 1 | 1416/2364 | 1.6 it/sec | Loss 0.71651[0m
…
